GanAgent_VAE_State (
  (lookupProb_): LookupProb(), parameters=0
  (discriminator): WoZDiscriminator(
    (gumbel_connector): GumbelConnector()
    (state_rep): Linear(in_features=64, out_features=32, bias=True)
    (action_rep): Linear(in_features=300, out_features=100, bias=True)
    (model): Sequential(
      (0): LeakyReLU(negative_slope=0.2, inplace=True)
      (1): Dropout(p=0.3, inplace=False)
      (2): Linear(in_features=132, out_features=32, bias=True)
      (3): LeakyReLU(negative_slope=0.2, inplace=True)
      (4): Dropout(p=0.3, inplace=False)
      (5): Linear(in_features=32, out_features=32, bias=True)
      (6): LeakyReLU(negative_slope=0.2, inplace=True)
      (7): Dropout(p=0.3, inplace=False)
      (8): Linear(in_features=32, out_features=1, bias=True)
    )
  ), parameters=37525
  (generator): WoZGenerator_StateVae(
    (gumbel_connector): GumbelConnector()
    (last_layers): ModuleList(
      (0): Linear(in_features=300, out_features=300, bias=True)
    )
    (state_model): Sequential(
      (0): Linear(in_features=128, out_features=100, bias=True)
      (1): ReLU(inplace=True)
      (2): Linear(in_features=100, out_features=64, bias=True)
      (3): ReLU(inplace=True)
      (4): Linear(in_features=64, out_features=64, bias=True)
    )
    (common_model): Sequential(
      (0): Linear(in_features=128, out_features=128, bias=True)
      (1): ReLU(inplace=True)
      (2): Linear(in_features=128, out_features=128, bias=True)
      (3): ReLU(inplace=True)
    )
    (action_model_2): Sequential(
      (0): Linear(in_features=128, out_features=96, bias=True)
      (1): ReLU(inplace=True)
      (2): Linear(in_features=96, out_features=96, bias=True)
      (3): ReLU(inplace=True)
      (4): Linear(in_features=96, out_features=300, bias=True)
    )
  ), parameters=197644
  (loss_BCE): BCELoss(), parameters=0
  (vae): VAE(
    (gumbel_connector): GumbelConnector()
    (encode_model): Sequential(
      (0): Linear(in_features=392, out_features=98, bias=True)
      (1): ReLU(inplace=True)
    )
    (decode_model): Sequential(
      (0): Linear(in_features=64, out_features=98, bias=True)
      (1): ReLU(inplace=True)
      (2): Linear(in_features=98, out_features=392, bias=True)
    )
    (fc21): Linear(in_features=98, out_features=64, bias=True)
    (fc22): Linear(in_features=98, out_features=64, bias=True)
  ), parameters=96364
) Total Parameters=331533
val disc_loss 0.693
Total valid loss 0.693441845354
Human-generated: 7320.0, Successful Predictions: 7320.0, Acc: 1.00
Machine-generated: 7320.0, Successful Predictions: 0.0, Acc: 0.00
Total: 14640.0, Successful Predictions: 7320.0, Acc: 0.50
D(x) on Human generated: 0.51
D(G(z)) on Machine generated: 0.51
val gen_loss 0.677 mean_dist -0.000
…
